…
:1000},"executionInfo":{"status":"ok","timestamp":1599232305890,"user_tz":-60,"elapsed":1042,"user":{"displayName":"MD Aneesh Quonain","photoUrl":"","userId":"15373696249087923141"}},"outputId":"5edc7b42-31de-4242-f5cd-e7f2bfea681a"},"source":["print(model.summary())"],"execution_count":22,"outputs":[{"output_type":"stream","text":["Model: \"sequential\"\n","_________________________________________________________________\n","Layer (type)                 Output Shape              Param #   \n","=================================================================\n","conv2d (Conv2D)              (None, 112, 112, 32)      320       \n","_________________________________________________________________\n","activation (Activation)      (None, 112, 112, 32)      0         \n","_________________________________________________________________\n","conv2d_1 (Conv2D)            (None, 112, 112, 32)      9248      \n","_________________________________________________________________\n","activation_1 (Activation)    (None, 112, 112, 32)      0         \n","_________________________________________________________________\n","conv2d_2 (Conv2D)            (None, 112, 112, 32)      9248      \n","_________________________________________________________________\n","activation_2 (Activation)    (None, 112, 112, 32)      0         \n","_________________________________________________________________\n","max_pooling2d (MaxPooling2D) (None, 37, 37, 32)        0         \n","_________________________________________________________________\n","dropout (Dropout)            (None, 37, 37, 32)        0         \n","_________________________________________________________________\n","conv2d_3 (Conv2D)            (None, 37, 37, 64)        18496     \n","_________________________________________________________________\n","activation_3 (Activation)    (None, 37, 37, 64)        0         \n","_________________________________________________________________\n","conv2d_4 (Conv2D)            (None, 37, 37, 64)        36928     \n","_________________________________________________________________\n","activation_4 (Activation)    (None, 37, 37, 64)        0         \n","_________________________________________________________________\n","max_pooling2d_1 (MaxPooling2 (None, 18, 18, 64)        0         \n","_________________________________________________________________\n","dropout_1 (Dropout)          (None, 18, 18, 64)        0         \n","_________________________________________________________________\n","conv2d_5 (Conv2D)            (None, 18, 18, 128)       73856     \n","_________________________________________________________________\n","activation_5 (Activation)    (None, 18, 18, 128)       0         \n","_________________________________________________________________\n","max_pooling2d_2 (MaxPooling2 (None, 9, 9, 128)         0         \n","_________________________________________________________________\n","dropout_2 (Dropout)          (None, 9, 9, 128)         0         \n","_________________________________________________________________\n","flatten (Flatten)            (None, 10368)             0         \n","_________________________________________________________________\n","dense (Dense)                (None, 1024)              10617856  \n","_________________________________________________________________\n","activation_6 (Activation)    (None, 1024)              0         \n","_________________________________________________________________\n","dropout_3 (Dropout)          (None, 1024)              0         \n","_________________________________________________________________\n","dense_1 (Dense)              (None, 64)                65600     \n","_________________________________________________________________\n","dropout_4 (Dropout)          (None, 64)                0         \n","_________________________________________________________________\n","dense_2 (Dense)              (None, 2)                 130       \n","=================================================================\n","Total params: 10,831,682\n","Trainable params: 10,831,682\n","Non-trainable params: 0\n","_________________________________________________________________\n","None\n"],"name":"stdout"}]},{"cell_type":"code","metadata":{"id":"wCj5xBENltor","colab_type":"code","colab":{},"executionInfo":{"status":"ok","timestamp":1599
…
